layer {
  name: "encode1"
  type: "InnerProduct"
  bottom: "data"
  top: "encode1"
  param {
    name: "weights1"
    lr_mult: 0
    decay_mult: 0
  }
  param {
    lr_mult: 0
    decay_mult: 0
  }
  inner_product_param {
    num_output: 784
    transpose: false
    weight_filler {
      type: "gaussian"
      std: 1
      sparse: 15
    }
    bias_filler {
      type: "constant"
      value: 0
    }
  }
}
layer {
  name: "encode1neuron"
  type: "Sigmoid"
  bottom: "encode1"
  top: "encode1neuron"
}
layer {
  name: "encode2"
  type: "InnerProduct"
  bottom: "encode1neuron"
  top: "encode2"
  param {
    name: "weights2"
    lr_mult: 0
    decay_mult: 0
  }
  param {
    lr_mult: 0
    decay_mult: 0
  }
  inner_product_param {
    num_output: 784
    transpose: false
    weight_filler {
      type: "gaussian"
      std: 1
      sparse: 15
    }
    bias_filler {
      type: "constant"
      value: 0
    }
  }
}
layer {
  name: "encode2neuron"
  type: "Sigmoid"
  bottom: "encode2"
  top: "encode2neuron"
}
layer {
  name: "encode3"
  type: "InnerProduct"
  bottom: "encode2neuron"
  top: "encode3"
  param {
    name: "weights3"
    lr_mult: 0
    decay_mult: 0
  }
  param {
    lr_mult: 0
    decay_mult: 0
  }
  inner_product_param {
    num_output: 784
    transpose: false
    weight_filler {
      type: "gaussian"
      std: 1
      sparse: 15
    }
    bias_filler {
      type: "constant"
      value: 0
    }
  }
}
layer {
  name: "encode3neuron"
  type: "Sigmoid"
  bottom: "encode3"
  top: "encode3neuron"
}
layer {
  name: "encode4"
  type: "InnerProduct"
  bottom: "encode3neuron"
  top: "encode4"
  param {
    name: "weights4"
    lr_mult: 0
    decay_mult: 0
  }
  param {
    lr_mult: 0
    decay_mult: 0
  }
  inner_product_param {
    num_output: 784
    transpose: false
    weight_filler {
      type: "gaussian"
      std: 1
      sparse: 15
    }
    bias_filler {
      type: "constant"
      value: 0
    }
  }
}

layer {
  name: "encode4neuron"
  type: "Sigmoid"
  bottom: "encode4"
  top: "encode4neuron"
}
